…
/home/eth/.local/lib/python3.6/site-packages/tensorflow/python/framework/dtypes.py:527: FutureWarning: Passing (type, 1) or '1type' as a synonym of type is deprecated; in a future version of numpy, it will be understood as (type, (1,)) / '(1,)type'.
  _np_qint32 = np.dtype([("qint32", np.int32, 1)])
/home/eth/.local/lib/python3.6/site-packages/tensorflow/python/framework/dtypes.py:532: FutureWarning: Passing (type, 1) or '1type' as a synonym of type is deprecated; in a future version of numpy, it will be understood as (type, (1,)) / '(1,)type'.
  np_resource = np.dtype([("resource", np.ubyte, 1)])
InceptionV4Wrapper(
  (_features): Sequential(
    (0): BasicConv2d(
      (conv): Conv2d(3, 32, kernel_size=(3, 3), stride=(2, 2), bias=False)
      (bn): BatchNorm2d(32, eps=0.001, momentum=0.1, affine=True, track_running_stats=True)
      (relu): ReLU(inplace=True)
    )
    (1): BasicConv2d(
      (conv): Conv2d(32, 32, kernel_size=(3, 3), stride=(1, 1), bias=False)
      (bn): BatchNorm2d(32, eps=0.001, momentum=0.1, affine=True, track_running_stats=True)
      (relu): ReLU(inplace=True)
    )
    (2): BasicConv2d(
      (conv): Conv2d(32, 64, kernel_size=(3, 3), stride=(1, 1), padding=(1, 1), bias=False)
      (bn): BatchNorm2d(64, eps=0.001, momentum=0.1, affine=True, track_running_stats=True)
      (relu): ReLU(inplace=True)
    )
    (3): Mixed_3a(
      (maxpool): MaxPool2d(kernel_size=3, stride=2, padding=0, dilation=1, ceil_mode=False)
      (conv): BasicConv2d(
        (conv): Conv2d(64, 96, kernel_size=(3, 3), stride=(2, 2), bias=False)
        (bn): BatchNorm2d(96, eps=0.001, momentum=0.1, affine=True, track_running_stats=True)
        (relu): ReLU(inplace=True)
      )
    )
    (4): Mixed_4a(
      (branch0): Sequential(
        (0): BasicConv2d(
          (conv): Conv2d(160, 64, kernel_size=(1, 1), stride=(1, 1), bias=False)
          (bn): BatchNorm2d(64, eps=0.001, momentum=0.1, affine=True, track_running_stats=True)
          (relu): ReLU(inplace=True)
        )
        (1): BasicConv2d(
          (conv): Conv2d(64, 96, kernel_size=(3, 3), stride=(1, 1), bias=False)
          (bn): BatchNorm2d(96, eps=0.001, momentum=0.1, affine=True, track_running_stats=True)
          (relu): ReLU(inplace=True)
        )
      )
      (branch1): Sequential(
        (0): BasicConv2d(
          (conv): Conv2d(160, 64, kernel_size=(1, 1), stride=(1, 1), bias=False)
          (bn): BatchNorm2d(64, eps=0.001, momentum=0.1, affine=True, track_running_stats=True)
          (relu): ReLU(inplace=True)
        )
        (1): BasicConv2d(
          (conv): Conv2d(64, 64, kernel_size=(1, 7), stride=(1, 1), padding=(0, 3), bias=False)
          (bn): BatchNorm2d(64, eps=0.001, momentum=0.1, affine=True, track_running_stats=True)
          (relu): ReLU(inplace=True)
        )
        (2): BasicConv2d(
          (conv): Conv2d(64, 64, kernel_size=(7, 1), stride=(1, 1), padding=(3, 0), bias=False)
          (bn): BatchNorm2d(64, eps=0.001, momentum=0.1, affine=True, track_running_stats=True)
          (relu): ReLU(inplace=True)
        )
        (3): BasicConv2d(
          (conv): Conv2d(64, 96, kernel_size=(3, 3), stride=(1, 1), bias=False)
          (bn): BatchNorm2d(96, eps=0.001, momentum=0.1, affine=True, track_running_stats=True)
          (relu): ReLU(inplace=True)
        )
      )
    )
    (5): Mixed_5a(
      (conv): BasicConv2d(
        (conv): Conv2d(192, 192, kernel_size=(3, 3), stride=(2, 2), bias=False)
        (bn): BatchNorm2d(192, eps=0.001, momentum=0.1, affine=True, track_running_stats=True)
        (relu): ReLU(inplace=True)
      )
      (maxpool): MaxPool2d(kernel_size=3, stride=2, padding=0, dilation=1, ceil_mode=False)
    )
    (6): Inception_A(
      (branch0): BasicConv2d(
        (conv): Conv2d(384, 96, kernel_size=(1, 1), stride=(1, 1), bias=False)
        (bn): BatchNorm2d(96, eps=0.001, momentum=0.1, affine=True, track_running_stats=True)
        (relu): ReLU(inplace=True)
      )
      (branch1): Sequential(
        (0): BasicConv2d(
          (conv): Conv2d(384, 64, kernel_size=(1, 1), stride=(1, 1), bias=False)
          (bn): BatchNorm2d(64, eps=0.001, momentum=0.1, affine=True, track_running_stats=True)
          (relu): ReLU(inplace=True)
        )
        (1): BasicConv2d(
          (conv): Conv2d(64, 96, kernel_size=(3, 3), stride=(1, 1), padding=(1, 1), bias=False)
          (bn): BatchNorm2d(96, eps=0.001, momentum=0.1, affine=True, track_running_stats=True)
          (relu): ReLU(inplace=True)
        )
      )
      (branch2): Sequential(
        (0): BasicConv2d(
          (conv): Conv2d(384, 64, kernel_size=(1, 1), stride=(1, 1), bias=False)
          (bn): BatchNorm2d(64, eps=0.001, momentum=0.1, affine=True, track_running_stats=True)
          (relu): ReLU(inplace=True)
        )
        (1): BasicConv2d(
          (conv): Conv2d(64, 96, kernel_size=(3, 3), stride=(1, 1), padding=(1, 1), bias=False)
          (bn): BatchNorm2d(96, eps=0.001, momentum=0.1, affine=True, track_running_stats=True)
          (relu): ReLU(inplace=True)
        )
        (2): BasicConv2d(
          (conv): Conv2d(96, 96, kernel_size=(3, 3), stride=(1, 1), padding=(1, 1), bias=False)
          (bn): BatchNorm2d(96, eps=0.001, momentum=0.1, affine=True, track_running_stats=True)
          (relu): ReLU(inplace=True)
        )
      )
      (branch3): Sequential(
        (0): AvgPool2d(kernel_size=3, stride=1, padding=1)
        (1): BasicConv2d(
          (conv): Conv2d(384, 96, kernel_size=(1, 1), stride=(1, 1), bias=False)
          (bn): BatchNorm2d(96, eps=0.001, momentum=0.1, affine=True, track_running_stats=True)
          (relu): ReLU(inplace=True)
        )
      )
    )
    (7): Inception_A(
      (branch0): BasicConv2d(
        (conv): Conv2d(384, 96, kernel_size=(1, 1), stride=(1, 1), bias=False)
        (bn): BatchNorm2d(96, eps=0.001, momentum=0.1, affine=True, track_running_stats=True)
        (relu): ReLU(inplace=True)
      )
      (branch1): Sequential(
        (0): BasicConv2d(
          (conv): Conv2d(384, 64, kernel_size=(1, 1), stride=(1, 1), bias=False)
          (bn): BatchNorm2d(64, eps=0.001, momentum=0.1, affine=True, track_running_stats=True)
          (relu): ReLU(inplace=True)
        )
        (1): BasicConv2d(
          (conv): Conv2d(64, 96, kernel_size=(3, 3), stride=(1, 1), padding=(1, 1), bias=False)
          (bn): BatchNorm2d(96, eps=0.001, momentum=0.1, affine=True, track_running_stats=True)
          (relu): ReLU(inplace=True)
        )
      )
      (branch2): Sequential(
        (0): BasicConv2d(
          (conv): Conv2d(384, 64, kernel_size=(1, 1), stride=(1, 1), bias=False)
          (bn): BatchNorm2d(64, eps=0.001, momentum=0.1, affine=True, track_running_stats=True)
          (relu): ReLU(inplace=True)
        )
        (1): BasicConv2d(
          (conv): Conv2d(64, 96, kernel_size=(3, 3), stride=(1, 1), padding=(1, 1), bias=False)
          (bn): BatchNorm2d(96, eps=0.001, momentum=0.1, affine=True, track_running_stats=True)
          (relu): ReLU(inplace=True)
        )
        (2): BasicConv2d(
          (conv): Conv2d(96, 96, kernel_size=(3, 3), stride=(1, 1), padding=(1, 1), bias=False)
          (bn): BatchNorm2d(96, eps=0.001, momentum=0.1, affine=True, track_running_stats=True)
          (relu): ReLU(inplace=True)
        )
      )
      (branch3): Sequential(
        (0): AvgPool2d(kernel_size=3, stride=1, padding=1)
        (1): BasicConv2d(
          (conv): Conv2d(384, 96, kernel_size=(1, 1), stride=(1, 1), bias=False)
          (bn): BatchNorm2d(96, eps=0.001, momentum=0.1, affine=True, track_running_stats=True)
          (relu): ReLU(inplace=True)
        )
      )
    )
    (8): Inception_A(
      (branch0): BasicConv2d(
        (conv): Conv2d(384, 96, kernel_size=(1, 1), stride=(1, 1), bias=False)
        (bn): BatchNorm2d(96, eps=0.001, momentum=0.1, affine=True, track_running_stats=True)
        (relu): ReLU(inplace=True)
      )
      (branch1): Sequential(
        (0): BasicConv2d(
          (conv): Conv2d(384, 64, kernel_size=(1, 1), stride=(1, 1), bias=False)
          (bn): BatchNorm2d(64, eps=0.001, momentum=0.1, affine=True, track_running_stats=True)
          (relu): ReLU(inplace=True)
        )
        (1): BasicConv2d(
          (conv): Conv2d(64, 96, kernel_size=(3, 3), stride=(1, 1), padding=(1, 1), bias=False)
          (bn): BatchNorm2d(96, eps=0.001, momentum=0.1, affine=True, track_running_stats=True)
          (relu): ReLU(inplace=True)
        )
      )
      (branch2): Sequential(
        (0): BasicConv2d(
          (conv): Conv2d(384, 64, kernel_size=(1, 1), stride=(1, 1), bias=False)
          (bn): BatchNorm2d(64, eps=0.001, momentum=0.1, affine=True, track_running_stats=True)
          (relu): ReLU(inplace=True)
        )
        (1): BasicConv2d(
          (conv): Conv2d(64, 96, kernel_size=(3, 3), stride=(1, 1), padding=(1, 1), bias=False)
          (bn): BatchNorm2d(96, eps=0.001, momentum=0.1, affine=True, track_running_stats=True)
          (relu): ReLU(inplace=True)
        )
        (2): BasicConv2d(
          (conv): Conv2d(96, 96, kernel_size=(3, 3), stride=(1, 1), padding=(1, 1), bias=False)
          (bn): BatchNorm2d(96, eps=0.001, momentum=0.1, affine=True, track_running_stats=True)
          (relu): ReLU(inplace=True)
        )
      )
      (branch3): Sequential(
        (0): AvgPool2d(kernel_size=3, stride=1, padding=1)
        (1): BasicConv2d(
          (conv): Conv2d(384, 96, kernel_size=(1, 1), stride=(1, 1), bias=False)
          (bn): BatchNorm2d(96, eps=0.001, momentum=0.1, affine=True, track_running_stats=True)
          (relu): ReLU(inplace=True)
        )
      )
    )
    (9): Inception_A(
      (branch0): BasicConv2d(
        (conv): Conv2d(384, 96, kernel_size=(1, 1), stride=(1, 1), bias=False)
        (bn): BatchNorm2d(96, eps=0.001, momentum=0.1, affine=True, track_running_stats=True)
        (relu): ReLU(inplace=True)
      )
      (branch1): Sequential(
        (0): BasicConv2d(
          (conv): Conv2d(384, 64, kernel_size=(1, 1), stride=(1, 1), bias=False)
          (bn): BatchNorm2d(64, eps=0.001, momentum=0.1, affine=True, track_running_stats=True)
          (relu): ReLU(inplace=True)
        )
        (1): BasicConv2d(
          (conv): Conv2d(64, 96, kernel_size=(3, 3), stride=(1, 1), padding=(1, 1), bias=False)
          (bn): BatchNorm2d(96, eps=0.001, momentum=0.1, affine=True, track_running_stats=True)
          (relu): ReLU(inplace=True)
        )
      )
      (branch2): Sequential(
        (0): BasicConv2d(
          (conv): Conv2d(384, 64, kernel_size=(1, 1), stride=(1, 1), bias=False)
          (bn): BatchNorm2d(64, eps=0.001, momentum=0.1, affine=True, track_running_stats=True)
          (relu): ReLU(inplace=True)
        )
        (1): BasicConv2d(
          (conv): Conv2d(64, 96, kernel_size=(3, 3), stride=(1, 1), padding=(1, 1), bias=False)
          (bn): BatchNorm2d(96, eps=0.001, momentum=0.1, affine=True, track_running_stats=True)
          (relu): ReLU(inplace=True)
        )
        (2): BasicConv2d(
          (conv): Conv2d(96, 96, kernel_size=(3, 3), stride=(1, 1), padding=(1, 1), bias=False)
          (bn): BatchNorm2d(96, eps=0.001, momentum=0.1, affine=True, track_running_stats=True)
          (relu): ReLU(inplace=True)
        )
      )
      (branch3): Sequential(
        (0): AvgPool2d(kernel_size=3, stride=1, padding=1)
        (1): BasicConv2d(
          (conv): Conv2d(384, 96, kernel_size=(1, 1), stride=(1, 1), bias=False)
          (bn): BatchNorm2d(96, eps=0.001, momentum=0.1, affine=True, track_running_stats=True)
          (relu): ReLU(inplace=True)
        )
      )
    )
    (10): Reduction_A(
      (branch0): BasicConv2d(
        (conv): Conv2d(384, 384, kernel_size=(3, 3), stride=(2, 2), bias=False)
        (bn): BatchNorm2d(384, eps=0.001, momentum=0.1, affine=True, track_running_stats=True)
        (relu): ReLU(inplace=True)
      )
      (branch1): Sequential(
        (0): BasicConv2d(
          (conv): Conv2d(384, 192, kernel_size=(1, 1), stride=(1, 1), bias=False)
          (bn): BatchNorm2d(192, eps=0.001, momentum=0.1, affine=True, track_running_stats=True)
          (relu): ReLU(inplace=True)
        )
        (1): BasicConv2d(
          (conv): Conv2d(192, 224, kernel_size=(3, 3), stride=(1, 1), padding=(1, 1), bias=False)
          (bn): BatchNorm2d(224, eps=0.001, momentum=0.1, affine=True, track_running_stats=True)
          (relu): ReLU(inplace=True)
        )
        (2): BasicConv2d(
          (conv): Conv2d(224, 256, kernel_size=(3, 3), stride=(2, 2), bias=False)
          (bn): BatchNorm2d(256, eps=0.001, momentum=0.1, affine=True, track_running_stats=True)
          (relu): ReLU(inplace=True)
        )
      )
      (branch2): MaxPool2d(kernel_size=3, stride=2, padding=0, dilation=1, ceil_mode=False)
    )
    (11): Inception_B(
      (branch0): BasicConv2d(
        (conv): Conv2d(1024, 384, kernel_size=(1, 1), stride=(1, 1), bias=False)
        (bn): BatchNorm2d(384, eps=0.001, momentum=0.1, affine=True, track_running_stats=True)
        (relu): ReLU(inplace=True)
      )
      (branch1): Sequential(
        (0): BasicConv2d(
          (conv): Conv2d(1024, 192, kernel_size=(1, 1), stride=(1, 1), bias=False)
          (bn): BatchNorm2d(192, eps=0.001, momentum=0.1, affine=True, track_running_stats=True)
          (relu): ReLU(inplace=True)
        )
        (1): BasicConv2d(
          (conv): Conv2d(192, 224, kernel_size=(1, 7), stride=(1, 1), padding=(0, 3), bias=False)
          (bn): BatchNorm2d(224, eps=0.001, momentum=0.1, affine=True, track_running_stats=True)
          (relu): ReLU(inplace=True)
        )
        (2): BasicConv2d(
          (conv): Conv2d(224, 256, kernel_size=(7, 1), stride=(1, 1), padding=(3, 0), bias=False)
          (bn): BatchNorm2d(256, eps=0.001, momentum=0.1, affine=True, track_running_stats=True)
          (relu): ReLU(inplace=True)
        )
      )
      (branch2): Sequential(
        (0): BasicConv2d(
          (conv): Conv2d(1024, 192, kernel_size=(1, 1), stride=(1, 1), bias=False)
          (bn): BatchNorm2d(192, eps=0.001, momentum=0.1, affine=True, track_running_stats=True)
          (relu): ReLU(inplace=True)
        )
        (1): BasicConv2d(
          (conv): Conv2d(192, 192, kernel_size=(7, 1), stride=(1, 1), padding=(3, 0), bias=False)
          (bn): BatchNorm2d(192, eps=0.001, momentum=0.1, affine=True, track_running_stats=True)
          (relu): ReLU(inplace=True)
        )
        (2): BasicConv2d(
          (conv): Conv2d(192, 224, kernel_size=(1, 7), stride=(1, 1), padding=(0, 3), bias=False)
          (bn): BatchNorm2d(224, eps=0.001, momentum=0.1, affine=True, track_running_stats=True)
          (relu): ReLU(inplace=True)
        )
        (3): BasicConv2d(
          (conv): Conv2d(224, 224, kernel_size=(7, 1), stride=(1, 1), padding=(3, 0), bias=False)
          (bn): BatchNorm2d(224, eps=0.001, momentum=0.1, affine=True, track_running_stats=True)
          (relu): ReLU(inplace=True)
        )
        (4): BasicConv2d(
          (conv): Conv2d(224, 256, kernel_size=(1, 7), stride=(1, 1), padding=(0, 3), bias=False)
          (bn): BatchNorm2d(256, eps=0.001, momentum=0.1, affine=True, track_running_stats=True)
          (relu): ReLU(inplace=True)
        )
      )
      (branch3): Sequential(
        (0): AvgPool2d(kernel_size=3, stride=1, padding=1)
        (1): BasicConv2d(
          (conv): Conv2d(1024, 128, kernel_size=(1, 1), stride=(1, 1), bias=False)
          (bn): BatchNorm2d(128, eps=0.001, momentum=0.1, affine=True, track_running_stats=True)
          (relu): ReLU(inplace=True)
        )
      )
    )
    (12): Inception_B(
      (branch0): BasicConv2d(
        (conv): Conv2d(1024, 384, kernel_size=(1, 1), stride=(1, 1), bias=False)
        (bn): BatchNorm2d(384, eps=0.001, momentum=0.1, affine=True, track_running_stats=True)
        (relu): ReLU(inplace=True)
      )
      (branch1): Sequential(
        (0): BasicConv2d(
          (conv): Conv2d(1024, 192, kernel_size=(1, 1), stride=(1, 1), bias=False)
          (bn): BatchNorm2d(192, eps=0.001, momentum=0.1, affine=True, track_running_stats=True)
          (relu): ReLU(inplace=True)
        )
        (1): BasicConv2d(
          (conv): Conv2d(192, 224, kernel_size=(1, 7), stride=(1, 1), padding=(0, 3), bias=False)
          (bn): BatchNorm2d(224, eps=0.001, momentum=0.1, affine=True, track_running_stats=True)
          (relu): ReLU(inplace=True)
        )
        (2): BasicConv2d(
          (conv): Conv2d(224, 256, kernel_size=(7, 1), stride=(1, 1), padding=(3, 0), bias=False)
          (bn): BatchNorm2d(256, eps=0.001, momentum=0.1, affine=True, track_running_stats=True)
          (relu): ReLU(inplace=True)
        )
      )
      (branch2): Sequential(
        (0): BasicConv2d(
          (conv): Conv2d(1024, 192, kernel_size=(1, 1), stride=(1, 1), bias=False)
          (bn): BatchNorm2d(192, eps=0.001, momentum=0.1, affine=True, track_running_stats=True)
          (relu): ReLU(inplace=True)
        )
        (1): BasicConv2d(
          (conv): Conv2d(192, 192, kernel_size=(7, 1), stride=(1, 1), padding=(3, 0), bias=False)
          (bn): BatchNorm2d(192, eps=0.001, momentum=0.1, affine=True, track_running_stats=True)
          (relu): ReLU(inplace=True)
        )
        (2): BasicConv2d(
          (conv): Conv2d(192, 224, kernel_size=(1, 7), stride=(1, 1), padding=(0, 3), bias=False)
          (bn): BatchNorm2d(224, eps=0.001, momentum=0.1, affine=True, track_running_stats=True)
          (relu): ReLU(inplace=True)
        )
        (3): BasicConv2d(
          (conv): Conv2d(224, 224, kernel_size=(7, 1), stride=(1, 1), padding=(3, 0), bias=False)
          (bn): BatchNorm2d(224, eps=0.001, momentum=0.1, affine=True, track_running_stats=True)
          (relu): ReLU(inplace=True)
        )
        (4): BasicConv2d(
          (conv): Conv2d(224, 256, kernel_size=(1, 7), stride=(1, 1), padding=(0, 3), bias=False)
          (bn): BatchNorm2d(256, eps=0.001, momentum=0.1, affine=True, track_running_stats=True)
          (relu): ReLU(inplace=True)
        )
      )
      (branch3): Sequential(
        (0): AvgPool2d(kernel_size=3, stride=1, padding=1)
        (1): BasicConv2d(
          (conv): Conv2d(1024, 128, kernel_size=(1, 1), stride=(1, 1), bias=False)
          (bn): BatchNorm2d(128, eps=0.001, momentum=0.1, affine=True, track_running_stats=True)
          (relu): ReLU(inplace=True)
        )
      )
    )
    (13): Inception_B(
      (branch0): BasicConv2d(
        (conv): Conv2d(1024, 384, kernel_size=(1, 1), stride=(1, 1), bias=False)
        (bn): BatchNorm2d(384, eps=0.001, momentum=0.1, affine=True, track_running_stats=True)
        (relu): ReLU(inplace=True)
      )
      (branch1): Sequential(
        (0): BasicConv2d(
          (conv): Conv2d(1024, 192, kernel_size=(1, 1), stride=(1, 1), bias=False)
          (bn): BatchNorm2d(192, eps=0.001, momentum=0.1, affine=True, track_running_stats=True)
          (relu): ReLU(inplace=True)
        )
        (1): BasicConv2d(
          (conv): Conv2d(192, 224, kernel_size=(1, 7), stride=(1, 1), padding=(0, 3), bias=False)
          (bn): BatchNorm2d(224, eps=0.001, momentum=0.1, affine=True, track_running_stats=True)
          (relu): ReLU(inplace=True)
        )
        (2): BasicConv2d(
          (conv): Conv2d(224, 256, kernel_size=(7, 1), stride=(1, 1), padding=(3, 0), bias=False)
          (bn): BatchNorm2d(256, eps=0.001, momentum=0.1, affine=True, track_running_stats=True)
          (relu): ReLU(inplace=True)
        )
      )
      (branch2): Sequential(
        (0): BasicConv2d(
          (conv): Conv2d(1024, 192, kernel_size=(1, 1), stride=(1, 1), bias=False)
          (bn): BatchNorm2d(192, eps=0.001, momentum=0.1, affine=True, track_running_stats=True)
          (relu): ReLU(inplace=True)
        )
        (1): BasicConv2d(
          (conv): Conv2d(192, 192, kernel_size=(7, 1), stride=(1, 1), padding=(3, 0), bias=False)
          (bn): BatchNorm2d(192, eps=0.001, momentum=0.1, affine=True, track_running_stats=True)
          (relu): ReLU(inplace=True)
        )
        (2): BasicConv2d(
          (conv): Conv2d(192, 224, kernel_size=(1, 7), stride=(1, 1), padding=(0, 3), bias=False)
          (bn): BatchNorm2d(224, eps=0.001, momentum=0.1, affine=True, track_running_stats=True)
          (relu): ReLU(inplace=True)
        )
        (3): BasicConv2d(
          (conv): Conv2d(224, 224, kernel_size=(7, 1), stride=(1, 1), padding=(3, 0), bias=False)
          (bn): BatchNorm2d(224, eps=0.001, momentum=0.1, affine=True, track_running_stats=True)
          (relu): ReLU(inplace=True)
        )
        (4): BasicConv2d(
          (conv): Conv2d(224, 256, kernel_size=(1, 7), stride=(1, 1), padding=(0, 3), bias=False)
          (bn): BatchNorm2d(256, eps=0.001, momentum=0.1, affine=True, track_running_stats=True)
          (relu): ReLU(inplace=True)
        )
      )
      (branch3): Sequential(
        (0): AvgPool2d(kernel_size=3, stride=1, padding=1)
        (1): BasicConv2d(
          (conv): Conv2d(1024, 128, kernel_size=(1, 1), stride=(1, 1), bias=False)
          (bn): BatchNorm2d(128, eps=0.001, momentum=0.1, affine=True, track_running_stats=True)
          (relu): ReLU(inplace=True)
        )
      )
    )
    (14): Inception_B(
      (branch0): BasicConv2d(
        (conv): Conv2d(1024, 384, kernel_size=(1, 1), stride=(1, 1), bias=False)
        (bn): BatchNorm2d(384, eps=0.001, momentum=0.1, affine=True, track_running_stats=True)
        (relu): ReLU(inplace=True)
      )
      (branch1): Sequential(
        (0): BasicConv2d(
          (conv): Conv2d(1024, 192, kernel_size=(1, 1), stride=(1, 1), bias=False)
          (bn): BatchNorm2d(192, eps=0.001, momentum=0.1, affine=True, track_running_stats=True)
          (relu): ReLU(inplace=True)
        )
        (1): BasicConv2d(
          (conv): Conv2d(192, 224, kernel_size=(1, 7), stride=(1, 1), padding=(0, 3), bias=False)
          (bn): BatchNorm2d(224, eps=0.001, momentum=0.1, affine=True, track_running_stats=True)
          (relu): ReLU(inplace=True)
        )
        (2): BasicConv2d(
          (conv): Conv2d(224, 256, kernel_size=(7, 1), stride=(1, 1), padding=(3, 0), bias=False)
          (bn): BatchNorm2d(256, eps=0.001, momentum=0.1, affine=True, track_running_stats=True)
          (relu): ReLU(inplace=True)
        )
      )
      (branch2): Sequential(
        (0): BasicConv2d(
          (conv): Conv2d(1024, 192, kernel_size=(1, 1), stride=(1, 1), bias=False)
          (bn): BatchNorm2d(192, eps=0.001, momentum=0.1, affine=True, track_running_stats=True)
          (relu): ReLU(inplace=True)
        )
        (1): BasicConv2d(
          (conv): Conv2d(192, 192, kernel_size=(7, 1), stride=(1, 1), padding=(3, 0), bias=False)
          (bn): BatchNorm2d(192, eps=0.001, momentum=0.1, affine=True, track_running_stats=True)
          (relu): ReLU(inplace=True)
        )
        (2): BasicConv2d(
          (conv): Conv2d(192, 224, kernel_size=(1, 7), stride=(1, 1), padding=(0, 3), bias=False)
          (bn): BatchNorm2d(224, eps=0.001, momentum=0.1, affine=True, track_running_stats=True)
          (relu): ReLU(inplace=True)
        )
        (3): BasicConv2d(
          (conv): Conv2d(224, 224, kernel_size=(7, 1), stride=(1, 1), padding=(3, 0), bias=False)
          (bn): BatchNorm2d(224, eps=0.001, momentum=0.1, affine=True, track_running_stats=True)
          (relu): ReLU(inplace=True)
        )
        (4): BasicConv2d(
          (conv): Conv2d(224, 256, kernel_size=(1, 7), stride=(1, 1), padding=(0, 3), bias=False)
          (bn): BatchNorm2d(256, eps=0.001, momentum=0.1, affine=True, track_running_stats=True)
          (relu): ReLU(inplace=True)
        )
      )
      (branch3): Sequential(
        (0): AvgPool2d(kernel_size=3, stride=1, padding=1)
        (1): BasicConv2d(
          (conv): Conv2d(1024, 128, kernel_size=(1, 1), stride=(1, 1), bias=False)
          (bn): BatchNorm2d(128, eps=0.001, momentum=0.1, affine=True, track_running_stats=True)
          (relu): ReLU(inplace=True)
        )
      )
    )
    (15): Inception_B(
      (branch0): BasicConv2d(
        (conv): Conv2d(1024, 384, kernel_size=(1, 1), stride=(1, 1), bias=False)
        (bn): BatchNorm2d(384, eps=0.001, momentum=0.1, affine=True, track_running_stats=True)
        (relu): ReLU(inplace=True)
      )
      (branch1): Sequential(
        (0): BasicConv2d(
          (conv): Conv2d(1024, 192, kernel_size=(1, 1), stride=(1, 1), bias=False)
          (bn): BatchNorm2d(192, eps=0.001, momentum=0.1, affine=True, track_running_stats=True)
          (relu): ReLU(inplace=True)
        )
        (1): BasicConv2d(
          (conv): Conv2d(192, 224, kernel_size=(1, 7), stride=(1, 1), padding=(0, 3), bias=False)
          (bn): BatchNorm2d(224, eps=0.001, momentum=0.1, affine=True, track_running_stats=True)
          (relu): ReLU(inplace=True)
        )
        (2): BasicConv2d(
          (conv): Conv2d(224, 256, kernel_size=(7, 1), stride=(1, 1), padding=(3, 0), bias=False)
          (bn): BatchNorm2d(256, eps=0.001, momentum=0.1, affine=True, track_running_stats=True)
          (relu): ReLU(inplace=True)
        )
      )
      (branch2): Sequential(
        (0): BasicConv2d(
          (conv): Conv2d(1024, 192, kernel_size=(1, 1), stride=(1, 1), bias=False)
          (bn): BatchNorm2d(192, eps=0.001, momentum=0.1, affine=True, track_running_stats=True)
          (relu): ReLU(inplace=True)
        )
        (1): BasicConv2d(
          (conv): Conv2d(192, 192, kernel_size=(7, 1), stride=(1, 1), padding=(3, 0), bias=False)
          (bn): BatchNorm2d(192, eps=0.001, momentum=0.1, affine=True, track_running_stats=True)
          (relu): ReLU(inplace=True)
        )
        (2): BasicConv2d(
          (conv): Conv2d(192, 224, kernel_size=(1, 7), stride=(1, 1), padding=(0, 3), bias=False)
          (bn): BatchNorm2d(224, eps=0.001, momentum=0.1, affine=True, track_running_stats=True)
          (relu): ReLU(inplace=True)
        )
        (3): BasicConv2d(
          (conv): Conv2d(224, 224, kernel_size=(7, 1), stride=(1, 1), padding=(3, 0), bias=False)
          (bn): BatchNorm2d(224, eps=0.001, momentum=0.1, affine=True, track_running_stats=True)
          (relu): ReLU(inplace=True)
        )
        (4): BasicConv2d(
          (conv): Conv2d(224, 256, kernel_size=(1, 7), stride=(1, 1), padding=(0, 3), bias=False)
          (bn): BatchNorm2d(256, eps=0.001, momentum=0.1, affine=True, track_running_stats=True)
          (relu): ReLU(inplace=True)
        )
      )
      (branch3): Sequential(
        (0): AvgPool2d(kernel_size=3, stride=1, padding=1)
        (1): BasicConv2d(
          (conv): Conv2d(1024, 128, kernel_size=(1, 1), stride=(1, 1), bias=False)
          (bn): BatchNorm2d(128, eps=0.001, momentum=0.1, affine=True, track_running_stats=True)
          (relu): ReLU(inplace=True)
        )
      )
    )
    (16): Inception_B(
      (branch0): BasicConv2d(
        (conv): Conv2d(1024, 384, kernel_size=(1, 1), stride=(1, 1), bias=False)
        (bn): BatchNorm2d(384, eps=0.001, momentum=0.1, affine=True, track_running_stats=True)
        (relu): ReLU(inplace=True)
      )
      (branch1): Sequential(
        (0): BasicConv2d(
          (conv): Conv2d(1024, 192, kernel_size=(1, 1), stride=(1, 1), bias=False)
          (bn): BatchNorm2d(192, eps=0.001, momentum=0.1, affine=True, track_running_stats=True)
          (relu): ReLU(inplace=True)
        )
        (1): BasicConv2d(
          (conv): Conv2d(192, 224, kernel_size=(1, 7), stride=(1, 1), padding=(0, 3), bias=False)
          (bn): BatchNorm2d(224, eps=0.001, momentum=0.1, affine=True, track_running_stats=True)
          (relu): ReLU(inplace=True)
        )
        (2): BasicConv2d(
          (conv): Conv2d(224, 256, kernel_size=(7, 1), stride=(1, 1), padding=(3, 0), bias=False)
          (bn): BatchNorm2d(256, eps=0.001, momentum=0.1, affine=True, track_running_stats=True)
          (relu): ReLU(inplace=True)
        )
      )
      (branch2): Sequential(
        (0): BasicConv2d(
          (conv): Conv2d(1024, 192, kernel_size=(1, 1), stride=(1, 1), bias=False)
          (bn): BatchNorm2d(192, eps=0.001, momentum=0.1, affine=True, track_running_stats=True)
          (relu): ReLU(inplace=True)
        )
        (1): BasicConv2d(
          (conv): Conv2d(192, 192, kernel_size=(7, 1), stride=(1, 1), padding=(3, 0), bias=False)
          (bn): BatchNorm2d(192, eps=0.001, momentum=0.1, affine=True, track_running_stats=True)
          (relu): ReLU(inplace=True)
        )
        (2): BasicConv2d(
          (conv): Conv2d(192, 224, kernel_size=(1, 7), stride=(1, 1), padding=(0, 3), bias=False)
          (bn): BatchNorm2d(224, eps=0.001, momentum=0.1, affine=True, track_running_stats=True)
          (relu): ReLU(inplace=True)
        )
        (3): BasicConv2d(
          (conv): Conv2d(224, 224, kernel_size=(7, 1), stride=(1, 1), padding=(3, 0), bias=False)
          (bn): BatchNorm2d(224, eps=0.001, momentum=0.1, affine=True, track_running_stats=True)
          (relu): ReLU(inplace=True)
        )
        (4): BasicConv2d(
          (conv): Conv2d(224, 256, kernel_size=(1, 7), stride=(1, 1), padding=(0, 3), bias=False)
          (bn): BatchNorm2d(256, eps=0.001, momentum=0.1, affine=True, track_running_stats=True)
          (relu): ReLU(inplace=True)
        )
      )
      (branch3): Sequential(
        (0): AvgPool2d(kernel_size=3, stride=1, padding=1)
        (1): BasicConv2d(
          (conv): Conv2d(1024, 128, kernel_size=(1, 1), stride=(1, 1), bias=False)
          (bn): BatchNorm2d(128, eps=0.001, momentum=0.1, affine=True, track_running_stats=True)
          (relu): ReLU(inplace=True)
        )
      )
    )
    (17): Inception_B(
      (branch0): BasicConv2d(
        (conv): Conv2d(1024, 384, kernel_size=(1, 1), stride=(1, 1), bias=False)
        (bn): BatchNorm2d(384, eps=0.001, momentum=0.1, affine=True, track_running_stats=True)
        (relu): ReLU(inplace=True)
      )
      (branch1): Sequential(
        (0): BasicConv2d(
          (conv): Conv2d(1024, 192, kernel_size=(1, 1), stride=(1, 1), bias=False)
          (bn): BatchNorm2d(192, eps=0.001, momentum=0.1, affine=True, track_running_stats=True)
          (relu): ReLU(inplace=True)
        )
        (1): BasicConv2d(
          (conv): Conv2d(192, 224, kernel_size=(1, 7), stride=(1, 1), padding=(0, 3), bias=False)
          (bn): BatchNorm2d(224, eps=0.001, momentum=0.1, affine=True, track_running_stats=True)
          (relu): ReLU(inplace=True)
        )
        (2): BasicConv2d(
          (conv): Conv2d(224, 256, kernel_size=(7, 1), stride=(1, 1), padding=(3, 0), bias=False)
          (bn): BatchNorm2d(256, eps=0.001, momentum=0.1, affine=True, track_running_stats=True)
          (relu): ReLU(inplace=True)
        )
      )
      (branch2): Sequential(
        (0): BasicConv2d(
          (conv): Conv2d(1024, 192, kernel_size=(1, 1), stride=(1, 1), bias=False)
          (bn): BatchNorm2d(192, eps=0.001, momentum=0.1, affine=True, track_running_stats=True)
          (relu): ReLU(inplace=True)
        )
        (1): BasicConv2d(
          (conv): Conv2d(192, 192, kernel_size=(7, 1), stride=(1, 1), padding=(3, 0), bias=False)
          (bn): BatchNorm2d(192, eps=0.001, momentum=0.1, affine=True, track_running_stats=True)
          (relu): ReLU(inplace=True)
        )
        (2): BasicConv2d(
          (conv): Conv2d(192, 224, kernel_size=(1, 7), stride=(1, 1), padding=(0, 3), bias=False)
          (bn): BatchNorm2d(224, eps=0.001, momentum=0.1, affine=True, track_running_stats=True)
          (relu): ReLU(inplace=True)
        )
        (3): BasicConv2d(
          (conv): Conv2d(224, 224, kernel_size=(7, 1), stride=(1, 1), padding=(3, 0), bias=False)
          (bn): BatchNorm2d(224, eps=0.001, momentum=0.1, affine=True, track_running_stats=True)
          (relu): ReLU(inplace=True)
        )
        (4): BasicConv2d(
          (conv): Conv2d(224, 256, kernel_size=(1, 7), stride=(1, 1), padding=(0, 3), bias=False)
          (bn): BatchNorm2d(256, eps=0.001, momentum=0.1, affine=True, track_running_stats=True)
          (relu): ReLU(inplace=True)
        )
      )
      (branch3): Sequential(
        (0): AvgPool2d(kernel_size=3, stride=1, padding=1)
        (1): BasicConv2d(
          (conv): Conv2d(1024, 128, kernel_size=(1, 1), stride=(1, 1), bias=False)
          (bn): BatchNorm2d(128, eps=0.001, momentum=0.1, affine=True, track_running_stats=True)
          (relu): ReLU(inplace=True)
        )
      )
    )
    (18): Reduction_B(
      (branch0): Sequential(
        (0): BasicConv2d(
          (conv): Conv2d(1024, 192, kernel_size=(1, 1), stride=(1, 1), bias=False)
          (bn): BatchNorm2d(192, eps=0.001, momentum=0.1, affine=True, track_running_stats=True)
          (relu): ReLU(inplace=True)
        )
        (1): BasicConv2d(
          (conv): Conv2d(192, 192, kernel_size=(3, 3), stride=(2, 2), bias=False)
          (bn): BatchNorm2d(192, eps=0.001, momentum=0.1, affine=True, track_running_stats=True)
          (relu): ReLU(inplace=True)
        )
      )
      (branch1): Sequential(
        (0): BasicConv2d(
          (conv): Conv2d(1024, 256, kernel_size=(1, 1), stride=(1, 1), bias=False)
          (bn): BatchNorm2d(256, eps=0.001, momentum=0.1, affine=True, track_running_stats=True)
          (relu): ReLU(inplace=True)
        )
        (1): BasicConv2d(
          (conv): Conv2d(256, 256, kernel_size=(1, 7), stride=(1, 1), padding=(0, 3), bias=False)
          (bn): BatchNorm2d(256, eps=0.001, momentum=0.1, affine=True, track_running_stats=True)
          (relu): ReLU(inplace=True)
        )
        (2): BasicConv2d(
          (conv): Conv2d(256, 320, kernel_size=(7, 1), stride=(1, 1), padding=(3, 0), bias=False)
          (bn): BatchNorm2d(320, eps=0.001, momentum=0.1, affine=True, track_running_stats=True)
          (relu): ReLU(inplace=True)
        )
        (3): BasicConv2d(
          (conv): Conv2d(320, 320, kernel_size=(3, 3), stride=(2, 2), bias=False)
          (bn): BatchNorm2d(320, eps=0.001, momentum=0.1, affine=True, track_running_stats=True)
          (relu): ReLU(inplace=True)
        )
      )
      (branch2): MaxPool2d(kernel_size=3, stride=2, padding=0, dilation=1, ceil_mode=False)
    )
    (19): Inception_C(
      (branch0): BasicConv2d(
        (conv): Conv2d(1536, 256, kernel_size=(1, 1), stride=(1, 1), bias=False)
        (bn): BatchNorm2d(256, eps=0.001, momentum=0.1, affine=True, track_running_stats=True)
        (relu): ReLU(inplace=True)
      )
      (branch1_0): BasicConv2d(
        (conv): Conv2d(1536, 384, kernel_size=(1, 1), stride=(1, 1), bias=False)
        (bn): BatchNorm2d(384, eps=0.001, momentum=0.1, affine=True, track_running_stats=True)
        (relu): ReLU(inplace=True)
      )
      (branch1_1a): BasicConv2d(
        (conv): Conv2d(384, 256, kernel_size=(1, 3), stride=(1, 1), padding=(0, 1), bias=False)
        (bn): BatchNorm2d(256, eps=0.001, momentum=0.1, affine=True, track_running_stats=True)
        (relu): ReLU(inplace=True)
      )
      (branch1_1b): BasicConv2d(
        (conv): Conv2d(384, 256, kernel_size=(3, 1), stride=(1, 1), padding=(1, 0), bias=False)
        (bn): BatchNorm2d(256, eps=0.001, momentum=0.1, affine=True, track_running_stats=True)
        (relu): ReLU(inplace=True)
      )
      (branch2_0): BasicConv2d(
        (conv): Conv2d(1536, 384, kernel_size=(1, 1), stride=(1, 1), bias=False)
        (bn): BatchNorm2d(384, eps=0.001, momentum=0.1, affine=True, track_running_stats=True)
        (relu): ReLU(inplace=True)
      )
      (branch2_1): BasicConv2d(
        (conv): Conv2d(384, 448, kernel_size=(3, 1), stride=(1, 1), padding=(1, 0), bias=False)
        (bn): BatchNorm2d(448, eps=0.001, momentum=0.1, affine=True, track_running_stats=True)
        (relu): ReLU(inplace=True)
      )
      (branch2_2): BasicConv2d(
        (conv): Conv2d(448, 512, kernel_size=(1, 3), stride=(1, 1), padding=(0, 1), bias=False)
        (bn): BatchNorm2d(512, eps=0.001, momentum=0.1, affine=True, track_running_stats=True)
        (relu): ReLU(inplace=True)
      )
      (branch2_3a): BasicConv2d(
        (conv): Conv2d(512, 256, kernel_size=(1, 3), stride=(1, 1), padding=(0, 1), bias=False)
        (bn): BatchNorm2d(256, eps=0.001, momentum=0.1, affine=True, track_running_stats=True)
        (relu): ReLU(inplace=True)
      )
      (branch2_3b): BasicConv2d(
        (conv): Conv2d(512, 256, kernel_size=(3, 1), stride=(1, 1), padding=(1, 0), bias=False)
        (bn): BatchNorm2d(256, eps=0.001, momentum=0.1, affine=True, track_running_stats=True)
        (relu): ReLU(inplace=True)
      )
      (branch3): Sequential(
        (0): AvgPool2d(kernel_size=3, stride=1, padding=1)
        (1): BasicConv2d(
          (conv): Conv2d(1536, 256, kernel_size=(1, 1), stride=(1, 1), bias=False)
          (bn): BatchNorm2d(256, eps=0.001, momentum=0.1, affine=True, track_running_stats=True)
          (relu): ReLU(inplace=True)
        )
      )
    )
    (20): Inception_C(
      (branch0): BasicConv2d(
        (conv): Conv2d(1536, 256, kernel_size=(1, 1), stride=(1, 1), bias=False)
        (bn): BatchNorm2d(256, eps=0.001, momentum=0.1, affine=True, track_running_stats=True)
        (relu): ReLU(inplace=True)
      )
      (branch1_0): BasicConv2d(
        (conv): Conv2d(1536, 384, kernel_size=(1, 1), stride=(1, 1), bias=False)
        (bn): BatchNorm2d(384, eps=0.001, momentum=0.1, affine=True, track_running_stats=True)
        (relu): ReLU(inplace=True)
      )
      (branch1_1a): BasicConv2d(
        (conv): Conv2d(384, 256, kernel_size=(1, 3), stride=(1, 1), padding=(0, 1), bias=False)
        (bn): BatchNorm2d(256, eps=0.001, momentum=0.1, affine=True, track_running_stats=True)
        (relu): ReLU(inplace=True)
      )
      (branch1_1b): BasicConv2d(
        (conv): Conv2d(384, 256, kernel_size=(3, 1), stride=(1, 1), padding=(1, 0), bias=False)
        (bn): BatchNorm2d(256, eps=0.001, momentum=0.1, affine=True, track_running_stats=True)
        (relu): ReLU(inplace=True)
      )
      (branch2_0): BasicConv2d(
        (conv): Conv2d(1536, 384, kernel_size=(1, 1), stride=(1, 1), bias=False)
        (bn): BatchNorm2d(384, eps=0.001, momentum=0.1, affine=True, track_running_stats=True)
        (relu): ReLU(inplace=True)
      )
      (branch2_1): BasicConv2d(
        (conv): Conv2d(384, 448, kernel_size=(3, 1), stride=(1, 1), padding=(1, 0), bias=False)
        (bn): BatchNorm2d(448, eps=0.001, momentum=0.1, affine=True, track_running_stats=True)
        (relu): ReLU(inplace=True)
      )
      (branch2_2): BasicConv2d(
        (conv): Conv2d(448, 512, kernel_size=(1, 3), stride=(1, 1), padding=(0, 1), bias=False)
        (bn): BatchNorm2d(512, eps=0.001, momentum=0.1, affine=True, track_running_stats=True)
        (relu): ReLU(inplace=True)
      )
      (branch2_3a): BasicConv2d(
        (conv): Conv2d(512, 256, kernel_size=(1, 3), stride=(1, 1), padding=(0, 1), bias=False)
        (bn): BatchNorm2d(256, eps=0.001, momentum=0.1, affine=True, track_running_stats=True)
        (relu): ReLU(inplace=True)
      )
      (branch2_3b): BasicConv2d(
        (conv): Conv2d(512, 256, kernel_size=(3, 1), stride=(1, 1), padding=(1, 0), bias=False)
        (bn): BatchNorm2d(256, eps=0.001, momentum=0.1, affine=True, track_running_stats=True)
        (relu): ReLU(inplace=True)
      )
      (branch3): Sequential(
        (0): AvgPool2d(kernel_size=3, stride=1, padding=1)
        (1): BasicConv2d(
          (conv): Conv2d(1536, 256, kernel_size=(1, 1), stride=(1, 1), bias=False)
          (bn): BatchNorm2d(256, eps=0.001, momentum=0.1, affine=True, track_running_stats=True)
          (relu): ReLU(inplace=True)
        )
      )
    )
    (21): Inception_C(
      (branch0): BasicConv2d(
        (conv): Conv2d(1536, 256, kernel_size=(1, 1), stride=(1, 1), bias=False)
        (bn): BatchNorm2d(256, eps=0.001, momentum=0.1, affine=True, track_running_stats=True)
        (relu): ReLU(inplace=True)
      )
      (branch1_0): BasicConv2d(
        (conv): Conv2d(1536, 384, kernel_size=(1, 1), stride=(1, 1), bias=False)
        (bn): BatchNorm2d(384, eps=0.001, momentum=0.1, affine=True, track_running_stats=True)
        (relu): ReLU(inplace=True)
      )
      (branch1_1a): BasicConv2d(
        (conv): Conv2d(384, 256, kernel_size=(1, 3), stride=(1, 1), padding=(0, 1), bias=False)
        (bn): BatchNorm2d(256, eps=0.001, momentum=0.1, affine=True, track_running_stats=True)
        (relu): ReLU(inplace=True)
      )
      (branch1_1b): BasicConv2d(
        (conv): Conv2d(384, 256, kernel_size=(3, 1), stride=(1, 1), padding=(1, 0), bias=False)
        (bn): BatchNorm2d(256, eps=0.001, momentum=0.1, affine=True, track_running_stats=True)
        (relu): ReLU(inplace=True)
      )
      (branch2_0): BasicConv2d(
        (conv): Conv2d(1536, 384, kernel_size=(1, 1), stride=(1, 1), bias=False)
        (bn): BatchNorm2d(384, eps=0.001, momentum=0.1, affine=True, track_running_stats=True)
        (relu): ReLU(inplace=True)
      )
      (branch2_1): BasicConv2d(
        (conv): Conv2d(384, 448, kernel_size=(3, 1), stride=(1, 1), padding=(1, 0), bias=False)
        (bn): BatchNorm2d(448, eps=0.001, momentum=0.1, affine=True, track_running_stats=True)
        (relu): ReLU(inplace=True)
      )
      (branch2_2): BasicConv2d(
        (conv): Conv2d(448, 512, kernel_size=(1, 3), stride=(1, 1), padding=(0, 1), bias=False)
        (bn): BatchNorm2d(512, eps=0.001, momentum=0.1, affine=True, track_running_stats=True)
        (relu): ReLU(inplace=True)
      )
      (branch2_3a): BasicConv2d(
        (conv): Conv2d(512, 256, kernel_size=(1, 3), stride=(1, 1), padding=(0, 1), bias=False)
        (bn): BatchNorm2d(256, eps=0.001, momentum=0.1, affine=True, track_running_stats=True)
        (relu): ReLU(inplace=True)
      )
      (branch2_3b): BasicConv2d(
        (conv): Conv2d(512, 256, kernel_size=(3, 1), stride=(1, 1), padding=(1, 0), bias=False)
        (bn): BatchNorm2d(256, eps=0.001, momentum=0.1, affine=True, track_running_stats=True)
        (relu): ReLU(inplace=True)
      )
      (branch3): Sequential(
        (0): AvgPool2d(kernel_size=3, stride=1, padding=1)
        (1): BasicConv2d(
          (conv): Conv2d(1536, 256, kernel_size=(1, 1), stride=(1, 1), bias=False)
          (bn): BatchNorm2d(256, eps=0.001, momentum=0.1, affine=True, track_running_stats=True)
          (relu): ReLU(inplace=True)
        )
      )
    )
  )
  (pool): AdaptiveAvgPool2d(output_size=1)
  (_classifier): Linear(in_features=1536, out_features=79, bias=True)
  (avgpool1): AdaptiveAvgPool2d(output_size=3)
  (avgpool2): AdaptiveAvgPool2d(output_size=2)
  (avgpool3): AdaptiveAvgPool1d(output_size=1)
  (fc): Identity()
)

#------------
    My_model = make_model( 'inception_v4', config.num_classes, pretrained=True, input_size=(299, 299)) #classifier_factory=make_classifier

    My_model.avgpool1 = nn.AdaptiveAvgPool2d(3)
…
